…
2022-04-21 00:11:45.221662: I tensorflow/core/common_runtime/pluggable_device/pluggable_device_factory.cc:271] Created TensorFlow device (/job:localhost/replica:0/task:0/device:GPU:0 with 0 MB memory) -> physical PluggableDevice (device: 0, name: METAL, pci bus id: <undefined>)
Model: "model"
_________________________________________________________________
 Layer (type)                Output Shape              Param #   
=================================================================
 input_1 (InputLayer)        [(None, 32, 32, 3)]       0         
                                                                 
 batch_normalization (BatchN  (None, 32, 32, 3)        12        
 ormalization)                                                   
                                                                 
 conv2d (Conv2D)             (None, 30, 30, 64)        1792      
                                                                 
 conv2d_1 (Conv2D)           (None, 28, 28, 64)        36928     
                                                                 
 max_pooling2d (MaxPooling2D  (None, 9, 9, 64)         0         
 )                                                               
                                                                 
 dropout (Dropout)           (None, 9, 9, 64)          0         
                                                                 
 conv2d_2 (Conv2D)           (None, 8, 8, 256)         65792     
                                                                 
 conv2d_3 (Conv2D)           (None, 7, 7, 256)         262400    
                                                                 
 max_pooling2d_1 (MaxPooling  (None, 3, 3, 256)        0         
 2D)                                                             
                                                                 
 dropout_1 (Dropout)         (None, 3, 3, 256)         0         
                                                                 
 flatten (Flatten)           (None, 2304)              0         
                                                                 
 dense (Dense)               (None, 512)               1180160   
                                                                 
 dense_1 (Dense)             (None, 128)               65664     
                                                                 
 dense_2 (Dense)             (None, 10)                1290      
                                                                 
=================================================================
Total params: 1,614,038
Trainable params: 1,614,032
Non-trainable params: 6
_________________________________________________________________
None
2022-04-21 00:11:45.648033: W tensorflow/core/platform/profile_utils/cpu_utils.cc:128] Failed to get CPU frequency: 0 Hz
…
